model/saved_model/model_gat_trained.pt (torch, 374899 bytes, 8 tensors)

attention_weight_source f4 [1, 8, 8]
-0.15929449 -0.037536368 0.0027108993 0.18794706 0.018255485 -0.057932433 0.07409531 -0.030251704
0.23153171 -0.14162931 0.16058816 -0.18971246 0.085221745 -0.232017 0.26041222 -0.09325713
0.07151091 0.22065921 0.24055736 0.220899 -0.07474716 -0.23324575 -0.26768363 -0.17095886
-0.14877196 -0.28245327 0.07910691 -0.116860665 -0.079642 -0.16419101 -0.15447137 -0.0894775
0.13425727 0.2387577 -0.03797286 0.08419404 0.007690322 -0.05910804 0.17471649 -0.26842535
-0.24457501 0.0060194796 -0.11293754 0.11478021 0.013442415 0.22672848 0.011580719 0.043157797
0.17595562 0.025684064 -0.023090856 0.07495539 0.057396624 -0.02024537 -0.17865707 -0.109095186
-0.22114938 -0.066238195 -0.06149453 0.21606372 0.19575834 -0.20733552 0.25691888 0.15004092
00000000: 181e 23be bcbf 19bd 58a9 313b 3275 403e
00000010: 878c 953c 8f4a 6dbd 48bf 973d 6cd2 f7bc
00000020: a616 6d3e 4607 11be 3971 243e fc43 42be
00000030: bd88 ae3d dd95 6dbe c054 853e 98fd bebd
00000040: 5074 923d 7df4 613e ab54 763e 5933 623e
00000050: 0a15 99bd f9d7 6ebe d40d 89be d70f 2fbe
00000060: ad57 18be b79d 90be ce02 a23d a554 efbd
00000070: 581b a3bd b021 28be be2d 1ebe fb3f b7bd
00000080: bd7a 093e e67c 743e 6e89 1bbd ed6d ac3d
00000090: 19ff fb3b 461b 72bd e1e8 323e 0c6f 89be
000000a0: df71 7abe 0e3f c53b cc4b e7bd e311 eb3d
000000b0: 933d 5c3c 832b 683e 0ebd 3d3c 3bc6 303d
000000c0: b62d 343e 6367 d23c 0929 bdbc 3682 993d
000000d0: b918 6b3d 9ed9 a5bc e1f1 36be 4c6d dfbd
000000e0: fc74 62be e4a7 87bd b0e1 7bbd cf3f 5d3e
000000f0: e074 483e c34f 54be df8a 833e 54a4 193e

attention_weight_target f4 [1, 8, 8]
0.09984793 0.017491592 -0.09883007 0.2473019 -0.0905348 -0.14483514 0.113078706 0.0029670335
0.16390194 -0.22079855 -0.08435228 -0.02547105 -0.035871275 0.18878126 -0.06392376 0.15867656
-0.08685835 0.046450544 0.10151047 -0.15862271 -0.25518608 -0.033340834 0.046929434 0.19003929
0.016818788 -0.13073833 0.08921105 0.19793044 0.27302998 -0.019525591 -0.13406602 0.25295347
0.043088146 -0.25983727 0.008590766 0.17623904 -0.08867142 -0.22482814 0.23767911 -0.24525012
-0.046173453 0.03722703 0.16496894 -0.0100037195 -0.077031955 -0.00896091 -0.02927514 -0.13068496
0.100718535 -0.27367675 0.10358237 0.2724998 -0.27943906 0.23756884 -0.06135399 0.10256096
-0.2397056 0.16740863 0.20129153 0.04851555 0.22854917 -0.24087106 0.12518986 0.12204674
00000000: 127d cc3d 874a 8f3c 6b67 cabd b63c 7d3e
00000010: 4f6a b9bd aa4f 14be cf95 e73d 9072 423b
00000020: e9d5 273e 0419 62be e3c0 acbd aaa8 d0bc
00000030: c2ed 12bd e04f 413e 76ea 82bd 1c7c 223e
00000040: cae2 b1bd ed42 3e3d b9e4 cf3d fe6d 22be
00000050: c0a7 82be 6690 08bd 1439 403d a999 423e
00000060: 8ec7 893c 45e0 05be 48b4 b63d 47ae 4a3e
00000070: 96ca 8b3e 22f4 9fbc 9a48 09be 1e83 813e
00000080: 327d 303d 6409 85be 49c0 0c3c 0278 343e
00000090: 5d99 b5bd 5939 66be 2762 733e d922 7bbe
000000a0: 6020 3dbd 5f7b 183d 9eed 283e a4e6 23bc
000000b0: eec2 9dbd c8d0 12bc 6bd2 efbc 47d2 05be
000000c0: 8545 ce3d 5c1f 8cbe fe22 d43d 1885 8b3e
000000d0: a312 8fbe 3f45 733e 524e 7bbd 7b0b d23d
000000e0: 6375 75be 2b6d 2b3e 5e1f 4e3e 3eb8 463d
000000f0: cb08 6a3e e7a6 76be c531 003e a4f3 f93d

weight f4 [64, 1433]
-0.0552286 0.048250705 0.0034300173 -0.024850532 0.002055058 -0.040030442 -0.00026686222 -0.038450196
-0.037966434 0.021920603 -0.004681032 0.010837353 0.04274826 -0.015430923 0.011774239 -0.03178803
-0.014627906 0.02731688 -0.015906407 -0.0076470287 0.025631677 0.043170743 0.03550281 -0.016512001
0.003186362 0.008518421 0.051276803 0.009730886 0.040814653 -0.03768792 -0.01142765 -0.058345303
0.01663615 0.047255374 0.032202918 0.017365523 0.03436131 0.03608083 0.006236961 -0.045006666
0.05602355 -0.05415527 0.04285994 -0.018637972 -0.059784684 -0.062327586 0.06113771 -0.029583987
0.052534953 0.04116031 0.058588292 -0.007821908 -0.056789335 -0.05193504 -0.0014031474 -0.039386727
0.014249114 -0.030153748 -0.020518897 -0.040523283 0.01033233 0.034837376 -0.045984518 -0.027665688
-0.041210733 -0.029146448 0.02875306 -0.015260285 -0.04410203 0.04680103 -0.062845126 0.004151345
0.054429818 2.461834e-05 -0.018664688 0.026679821 0.051614806 0.036180623 0.011076276 0.042106237
0.023939768 -0.009961621 0.020113872 -0.058617093 -0.012047584 -0.0022860416 0.05203069 -0.007252358
0.008831909 0.02576347 -0.04957691 -0.023268996 0.05491503 -0.0015695513 -0.05077336 0.03569857
-0.014755866 0.01931856 -0.026562255 -0.04636986 -0.03404509 -0.056107026 -0.005777069 -0.013272508
-0.03716885 -0.00038797662 -0.061234213 0.0014251544 0.058247335 0.017949035 -0.03408563 -0.020510279
0.0041158744 0.059415437 -0.015117714 -0.051742252 0.049197633 -0.012057229 0.041696526 0.04059077
0.04972487 0.05023786 -0.0053229127 -0.026184406 -0.027145986 0.046386305 -0.016767167 0.040724788
-0.023803385 -0.051010817 -0.008921771 0.020051593 -0.03476128 0.051215146 0.045985665 -0.034040734
0.042678513 0.008188927 -0.028151654 -0.013639429 -0.016602475 -0.06204182 0.024935158 -0.0049791993
0.047799565 0.047208145 0.042633373 0.008480347 -0.052331295 0.01682826 0.06116488 -0.05017566
-0.0071636206 -0.031682402 0.006583814 0.012058436 0.052910183 -0.053327464 0.0416772 -0.05677988
-0.025494572 0.0069105164 0.04623686 0.034769792 0.047486886 0.048565436 -0.003975862 0.008466325
-0.030749366 0.00584103 0.060087513 0.047088027 0.008051526 0.007343209 0.015865805 -0.028301341
0.057285905 -0.05751078 -0.0024132617 -0.058085587 -0.004298927 0.006715396 -0.015099201 -0.06133465
-0.05376112 0.04056701 0.010756721 -0.017518079 -0.030577429 -0.034756888 -0.0041989214 -0.043504216
-0.024879634 -0.023110917 -0.028872635 0.059629373 -0.025253272 0.04831835 0.029216258 0.045349393
-0.019400567 0.018842412 8.090393e-05 -0.0007136979 0.0564096 -0.035035733 -0.02485346 -0.0045350273
0.024486896 -0.0046810545 -0.05653389 0.022266807 -0.044161364 -0.033918098 -0.0011171309 -0.0020864385
-0.05132016 0.026693754 -0.0053171464 -0.031186193 0.0014225432 -0.059559487 -0.009216693 0.052367747
0.047662973 -0.04828751 -0.03126847 0.060339916 -0.023130199 0.010576853 0.056907445 -0.0047343136
0.05249832 -0.05953031 -0.05748156 0.048157785 0.039044276 0.03554619 0.02324348 -0.04072454
-0.03138945 -0.015626896 0.014268231 0.008118634 -0.054560296 0.041287515 0.048251 0.0140840085
0.016279304 0.02873063 -0.054067265 -0.03571429 0.05259464 0.043703035 -0.0046259314 0.059370942
00000000: 6237 62bd 88a2 453d 24ca 603b 5893 cbbc
00000010: 27ae 063b f6f6 23bd a4e9 8bb9 f47d 1dbd
00000020: b182 1bbd d692 b33c 5863 99bb 278f 313c
00000030: cd18 2f3d fbd1 7cbc bde8 403c 2a34 02bd
00000040: e2a9 6fbc a6c7 df3c 274e 82bc ed93 fabb
00000050: 86f9 d13c ced3 303d 656b 113d 2d44 87bc
00000060: 49d2 503b d990 0b3c a007 523d 4b6e 1f3c
00000070: 442d 273d a65e 1abd 0a3b 3bbc 7cfb 6ebd
00000080: 8948 883c da8e 413d 35e7 033d 2442 8e3c
00000090: 72be 0c3d 7ec9 133d 6c5f cc3b e958 38bd
000000a0: f378 653d ebd1 5dbd e88d 2f3d a9ae 98bc
000000b0: c9e0 74bd 364b 7fbd 896b 7a3d 1e5a f2bc
000000c0: e42e 573d b797 283d 47fa 6f3d 7627 00bc
000000d0: ef9b 68bd d6b9 54bd d0e9 b7ba fa53 21bd
000000e0: 1e75 693c fe04 f7bc 3f17 a8bc befb 25bd
000000f0: ef48 293c a3b1 0e3d 435a 3cbd 27a3 e2bc
00000100: 96cc 28bd 88c4 eebc 8a8b eb3c 4606 7abc
00000110: 55a4 34bd 70b2 3f3d f2b4 80bd 0208 883b
00000120: cdf1 5e3d 7c83 ce37 b0e6 98bc a48f da3c
00000130: 0c6a 533d 2232 143d 4579 353c 9777 2c3d
00000140: 551d c43c 1136 23bc d9c5 a43c 7a18 70bd
00000150: 3b63 45bc 6ad1 15bb 221e 553d 30a5 edbb
00000160: b6b3 103c ea0d d33c 2811 4bbd 9f9e bebc
00000170: 95ee 603d 67b9 cdba baf7 4fbd aa38 123d
00000180: 96c2 71bc f541 9e3c 1699 d9bc 53ee 3dbd
00000190: dd72 0bbd 7bd0 65bd 914d bdbb ef74 59bc
000001a0: 5d3e 18bd 5769 cbb9 bad0 7abd 3fcc ba3a
000001b0: c294 6e3d db09 933c 609d 0bbd 2c05 a8bc
000001c0: 75de 863b 9a5d 733d 4ab0 77bc afef 53bd
000001d0: 7583 493d af8b 45bc fac9 2a3d 8242 263d
000001e0: 4eac 4b3d 37c6 4d3d d46b aebb ae80 d6bc
000001f0: 4261 debc 91ff 3d3d 4c5b 89bc 09cf 263d
00000200: 51ff c2bc b8f0 50bd 9f2c 12bc 3d43 a43c
00000210: d861 0ebd f9c6 513d 775b 3c3d 4c6e 0bbd
00000220: aacf 2e3d d92a 063c 4c9e e6bc e977 5fbc
00000230: ea01 88bc 901f 7ebd d144 cc3c 8d28 a3bb
00000240: 7ac9 433d 545d 413d 55a0 2e3d 27f1 0a3c
00000250: 5759 56bd 6bdb 893c 0688 7a3d fe84 4dbd
00000260: cebc eabb 68c5 01bd 09bd d73b bf90 453c
00000270: 59b8 583d e66d 5abd b6b5 2a3d 0592 68bd
00000280: fed9 d0bc 9d71 e23b dd62 3d3d c56a 0e3d
00000290: 9c81 423d 8dec 463d f347 82bb 57b6 0a3c
000002a0: 18e6 fbbc 1c66 bf3b 531e 763d 60df 403d
000002b0: 8cea 033c 4d9f f03b 01f9 813c 37d8 e7bc
000002c0: a0a4 6a3d 6c90 6bbd d027 1ebb 27eb 6dbd
000002d0: 03de 8cbb d30c dc3b a462 77bc 0b3a 7bbd
000002e0: 9f34 5cbd 9829 263d f53c 303c 1382 8fbc
000002f0: 847d fabc 3d5d 0ebd 1b97 89bb 7a31 32bd
00000300: 60d0 cbbc 1b53 bdbc 4e86 ecbc ee3d 743d
00000310: f3df cebc 76e9 453d ef56 ef3c 49c0 393d
00000320: f0ed 9ebc 675b 9a3c f7aa a938 7517 3bba
00000330: c10d 673d a181 0fbd 7c99 cbbc 919a 94bb
00000340: be98 c83c 8863 99bb 1590 67bd e168 b63c
00000350: 8ce2 34bd b4ed 0abd b16c 92ba a1bc 08bb
00000360: 1735 52bd dcac da3c 753b aebb 307a ffbc
00000370: a174 ba3a a6f4 73bd 9d01 17bc 907f 563d
00000380: 403a 433d 20c9 45bd 5e13 00bd fd26 773d
00000390: 8b7b bdbc 894a 2d3c c817 693d 4d22 9bbb
000003a0: 7a08 573d 0ed6 73bd c971 6bbd 1941 453d
000003b0: e4ec 1f3d e298 113d 1c69 be3c c6ce 26bd
000003c0: 3992 00bd fa03 80bc 4cc5 693c 0504 053c
000003d0: 9e7a 5fbd 191d 293d d7a2 453d 9dc0 663c
000003e0: 2d5c 853c 805c eb3c a375 5dbd 2649 12bd
000003f0: 7a6d 573d f401 333d 2095 97bb f22e 733d

bias f4 [64]
-0.019065619 -0.016698789 -0.01786594 -0.006738922 0.0013073726 0.026121916 -0.012034144 0.009916812
-0.012255192 -0.022694523 -0.022210645 -0.020821828 -0.020789629 -0.00482039 -0.010262669 0.01808024
0.024530312 -0.014053988 0.019459195 0.02047647 -0.019179143 -0.024157193 -0.018314058 -0.013338689
0.0039627412 0.009265962 -0.0014627872 -0.019251412 -0.00047582964 -0.022703245 -0.013472878 -0.007102395
-0.022843545 0.0061844974 0.014471639 -0.005176107 6.5189604e-05 0.024759863 -0.022541946 0.00736572
-0.012282451 -0.002634802 0.005605519 0.008340154 -0.0040292344 -0.00035007016 -0.02423303 0.024056148
0.011913234 -0.023440896 -0.008137748 0.008591543 -0.010578521 0.014829232 -0.017554456 0.011084132
0.0071485452 0.017252011 0.0055461046 0.007587612 0.00010765527 0.023826849 0.008140595 -0.015873626
00000000: 802f 9cbc e6cb 88bc 985b 92bc 2dd2 dcbb
00000010: 255c ab3a a1fd d53c dc2a 45bc 207a 223c
00000020: 00ca 48bc dde9 b9bc 19f3 b5bc 8a92 aabc
00000030: 034f aabc 5df4 9dbb c124 28bc 031d 943c
00000040: cbf3 c83c b342 66bc e468 9f3c 45be a73c
00000050: 941d 9dbc 4ee5 c5bc 5d07 96bc 848a 5abc
00000060: e2d9 813b 43d0 173c feba bfba 23b5 9dbc
00000070: c678 f9b9 28fc b9bc 59bd 5cbc 35bb e8bb
00000080: 6322 bbbc 53a7 ca3b 741a 6d3c 559c a9bb
00000090: 67b6 8838 32d5 ca3c e3a9 b8bc 235c f13b
000000a0: 553c 49bc a4ac 2cbb 80ae b73b 24a5 083c
000000b0: ab07 84bb 9f89 b7b9 5984 c6bc 6611 c53c
000000c0: ba2f 433c 1f07 c0bc 3054 05bc 8bc3 0c3c
000000d0: 8851 2dbc 4ff6 723c 5dce 8fbc 389a 353c
000000e0: 583e ea3b 1754 8d3c 19bc b53b 81a1 f83b
000000f0: fcc4 e138 8630 c33c 2160 053c 6809 82bc

attention_weight_source f4 [1, 1, 7]
-0.022725403 0.0017900218 0.06582913 0.43683016 -0.15526037 -0.14632657 -0.1997466
00000000: a02a babc 2a9f ea3a 6cd1 863d 34a8 df3e
00000010: 93fc 1ebe a2d6 15be 5f8a 4cbe

attention_weight_target f4 [1, 1, 7]
-0.064382724 0.39354905 -0.24793655 0.4145993 -0.0007735404 0.07299281 0.2018448
00000000: 17db 83bd 437f c93e 14e3 7dbe 5c46 d43e
00000010: 6bc7 4aba 417d 953d 67b0 4e3e

weight f4 [7, 64]
0.286793 -0.10541609 -0.20433708 -0.08031151 -0.11898416 -0.010739076 -0.1516407 0.23919813
-0.1906118 0.015862985 0.1788348 0.011602833 0.2078735 -0.029198427 0.18205684 -0.25729153
-0.25846782 0.21477774 -0.25428632 -0.20229441 0.065655775 -0.23118341 -0.111097515 0.05280771
-0.043309778 0.010831187 0.1558546 0.220491 0.23090209 -0.14228714 -0.093329795 -0.24422872
0.28865415 0.27232358 -0.22333387 0.26168352 0.028215839 0.052122943 0.2303411 -0.057476506
0.1960973 -0.22279735 0.047997214 0.26594368 -0.18394183 0.2210146 -0.21573888 -0.08067164
0.17663525 -0.031124717 -0.12131071 -0.16105561 -0.28736323 -0.24546085 -0.24990526 -0.2903024
-0.10628896 0.21977374 0.27703696 -0.21028987 0.12981449 0.24525937 0.2544983 0.14942186
-0.08699777 -0.01969772 0.088374995 0.11420271 -0.04223903 -0.080336705 0.26162156 -0.01082578
-0.026369773 0.014533543 -0.08390907 -0.22814056 -0.118360564 -0.20821728 0.05379286 0.13225314
0.028173631 0.09661904 0.016966583 0.033774033 -0.13974227 -0.035461005 0.11984238 0.0071190577
-0.22938877 -0.19422662 -0.019753063 0.1918097 0.16082491 0.13132648 -0.030055946 -0.11718128
-0.27860317 0.16394144 -0.14834712 0.03824135 0.2367885 0.21159405 -0.2016146 0.10772767
-0.08607077 -0.14685087 -0.121711284 0.09068328 0.19176312 0.109679185 -0.20520876 0.0661715
0.10550376 0.1510144 -0.25595832 -0.27559012 0.19326507 -0.2581791 -0.10450995 0.13354294
-0.01809451 -0.078725174 0.20338248 -0.28653494 0.077225134 -0.23457567 -0.023508405 0.062271856
-0.09105089 0.28848183 0.09466281 0.12852137 -0.13188098 0.078416474 0.17874973 -0.06409952
0.050540246 0.012655248 0.2798302 0.19330211 0.01593801 -0.108491756 0.079773255 -0.25459507
-0.24154188 -0.20549473 0.050680876 -0.25894496 0.20807266 0.107777774 0.20028196 0.19278216
-0.16869783 -0.28427768 -0.10934778 0.28866374 0.04375297 0.21616162 -0.124501154 -0.2000259
0.28477344 -0.044104293 -0.1616202 0.13494691 0.09904037 -0.1735397 -0.23304021 -0.19383493
-0.1750597 0.16767335 -0.27764204 0.19517916 0.16950531 -0.25096712 0.03058224 0.28956202
0.017178286 -0.072471365 -0.21848488 -0.2674979 -0.031480823 -0.09234998 -0.036176823 -0.240717
0.16246083 0.23992401 -0.05472461 0.18554562 -0.23986593 -0.16832672 -0.21177249 -0.16487493
-0.26850244 -0.267853 0.27708134 0.12608586 -0.27162284 -0.25475422 0.16695148 0.10216424
-0.1844263 -0.058952115 -0.12308553 0.28632715 -0.272274 -0.16990827 0.21236181 -0.124955125
0.21634619 0.17084193 0.11840613 0.033359986 -0.087259896 0.16994646 -0.21530701 0.10978911
-0.1163398 0.046065412 -0.06806262 0.22054836 -0.12895305 -0.1334938 -0.0127486065 0.28543326
-0.28039217 -0.23159097 -0.11310795 -0.16935305 0.2590761 -0.21213709 0.11301116 -0.232212
0.20297949 0.25324896 0.087222464 -0.09683341 -0.029147623 0.235894 -0.1909048 0.25393203
-0.12284707 -0.23721854 -0.24216762 0.24514338 -0.20558296 0.12003845 -0.21331103 0.05079489
-0.2146035 -0.13328992 -0.02970566 -0.10127182 -0.06952219 0.038414065 0.18604323 0.10104737
00000000: 88d6 923e 64e4 d7bd bd3d 51be 5c7a a4bd
00000010: f8ad f3bd f3f2 2fbc b347 1bbe 5bf0 743e
00000020: bd2f 43be 17f3 813c 7820 373e cf19 3e3c
00000030: cadc 543e 8a31 efbc 1c6d 3a3e b7bb 83be
00000040: e555 84be b2ee 5b3e d131 82be 4426 4fbe
00000050: 8976 863d 58bb 6cbe 1887 e3bd e64c 583d
00000060: 9865 31bd 4a75 313c 5998 1f3e 65c8 613e
00000070: 9971 6c3e b8b3 11be b123 bfbd 1817 7abe
00000080: 7aca 933e ff6d 8b3e a2b1 64be 62fb 853e
00000090: e724 e73c de7e 553d 8ade 6b3e 7c6c 6bbd
000000a0: bbcd 483e fd24 64be ba98 443d c529 883e
000000b0: 3f5b 3cbe a751 623e a7ea 5cbe 2c37 a5bd
000000c0: dfdf 343e 43f9 febc c071 f8bd c3eb 24be
000000d0: 4621 93be 175a 7bbe 2ae7 7fbe 84a2 94be
000000e0: 07ae d9bd 5e0c 613e cad7 8d3e 3a56 57be
000000f0: 17ee 043e 4625 7b3e 9a4d 823e 0b02 193e
00000100: e32b b2bd 1d5d a1bc f3fd b43d 1ce3 e93d
00000110: d502 2dbd 9287 a4bd 43f3 853e 9d5e 31bc
00000120: 6c05 d8bc 191e 6e3c 85d8 abbd ae9d 69be
00000130: 0667 f2bd e936 55be e755 5c3d 5e6d 073e
00000140: 63cc e63c 34e0 c53d 81fd 8a3c a456 0a3d
00000150: 9918 0fbe 8f3f 11bd ec6f f53d fc46 e93b
00000160: e4e4 6abe 58e3 46be 2dd1 a1bc c369 443e
00000170: 49af 243e 737a 063e e337 f6bc bdfc efbd
00000180: 13a5 8ebe 44e0 273e 4fe8 17be f6a2 1c3d
00000190: af78 723e 1cac 583e 0f74 4ebe 53a0 dc3d
000001a0: df45 b0bd 1360 16be c443 f9bd 28b8 b93d
000001b0: 8d5d 443e 7b9f e03d 3f22 52be ec84 873d
000001c0: 5b12 d83d 85a3 1a3e f80c 83be 261a 8dbe
000001d0: 47e7 453e 0d30 84be 5009 d6bd 7bbf 083e
000001e0: f03a 94bc aa3a a1bd 7f43 503e b5b4 92be
000001f0: 3628 9e3d 9b34 70be b394 c0bc c610 7f3d
00000200: e478 babd e4b3 933e 93de c13d 1b9b 033e
00000210: cf0b 07be d198 a03d 2b0a 373e 9c46 83bd
00000220: 4a03 4f3d f557 4f3c e745 8f3e fdf0 453e
00000230: 6e90 823c ed30 debd 2960 a33d 495a 82be
00000240: c156 77be 366d 52be c096 4f3d 6f94 84be
00000250: 0011 553e 98ba dc3d b716 4d3e b068 453e
00000260: 20bf 2cbe d88c 91be bbf1 dfbd bccb 933e
00000270: 5036 333d 7959 5d3e 76fa febd 97d3 4cbe
00000280: d3cd 913e b4a6 34bd c47f 25be 862f 0a3e
00000290: add5 ca3d 64b4 31be 18a2 6ebe aa7c 46be
000002a0: da42 33be 90b2 2b3e 1927 8ebe 0cdd 473e
000002b0: cd92 2d3e c37e 80be 9b87 fa3c 7941 943e
000002c0: 7ab9 8c3c de6b 94bd 80ba 5fbe 7cf5 88be
000002d0: 09f2 00bd fc21 bdbd 262e 14bd 847e 76be
000002e0: 225c 263e a4ae 753e ea26 60bd acff 3d3e
000002f0: 6a9f 75be d75d 2cbe e3da 58be f9d4 28be
00000300: 2779 89be 0724 89be 9bdd 8d3e a71c 013e
00000310: 2612 8bbe 256f 82be 54f5 2a3e 7c3b d13d
00000320: 3fda 3cbe c677 71bd 4414 fcbd 7999 923e
00000330: 7f67 8bbe 6ffc 2dbe 6075 593e 79e8 ffbd
00000340: db89 5d3e 30f1 2e3e ea7e f23d 7ba4 083d
00000350: 51b5 b2bd 7206 2e3e 7179 5cbe 1dd9 e03d
00000360: 9043 eebd 16af 3c3d 6a64 8bbd 6ed7 613e
00000370: 450c 04be 99b2 08be 88df 50bc 4f24 923e
00000380: 908f 8fbe 2f26 6dbe 24a5 e7bd e36a 2dbe
00000390: 9fa5 843e 773a 59be 6572 e73d fcc8 6dbe
000003a0: dbd9 4f3e d9a9 813e b1a1 b23d 9850 c6bd
000003b0: ffc6 eebc 328e 713e 8c7c 43be 6103 823e
000003c0: 3f97 fbbd 6be9 72be cafa 77be de06 7b3e
000003d0: 5784 52be b8d6 f53d 356e 5abe 4d0e 503d
000003e0: 05c1 5bbe 277d 08be 4959 f3bc 9a67 cfbd
000003f0: a661 8ebd 1158 1d3d 1e82 3e3e ecf1 ce3d

bias f4 [7]
0.04672362 -0.007819504 0.08914584 0.08230886 0.0438025 0.07512961 0.09794918
00000000: 4461 3f3d 601d 00bc 1892 b63d 8c91 a83d
00000010: 406a 333d 8edd 993d 9499 c83d
